…
2018-11-29 11:35:03.056645: I tensorflow/stream_executor/cuda/cuda_diagnostics.cc:194] libcuda reported version is: 396.26.0
2018-11-29 11:35:03.056675: I tensorflow/stream_executor/cuda/cuda_diagnostics.cc:198] kernel reported version is: 396.26.0
2018-11-29 11:35:03.056682: I tensorflow/stream_executor/cuda/cuda_diagnostics.cc:305] kernel version seems to match DSO: 396.26.0
class_limit =  101
Loading CNN model for the temporal stream.
Input shape:
(224, 224, 20)
Numer of classes:
101
_________________________________________________________________
Layer (type)                 Output Shape              Param #   
=================================================================
conv2d_1 (Conv2D)            (None, 112, 112, 96)      94176     
_________________________________________________________________
batch_normalization_1 (Batch (None, 112, 112, 96)      384       
_________________________________________________________________
activation_1 (Activation)    (None, 112, 112, 96)      0         
_________________________________________________________________
max_pooling2d_1 (MaxPooling2 (None, 56, 56, 96)        0         
_________________________________________________________________
conv2d_2 (Conv2D)            (None, 28, 28, 256)       614656    
_________________________________________________________________
activation_2 (Activation)    (None, 28, 28, 256)       0         
_________________________________________________________________
max_pooling2d_2 (MaxPooling2 (None, 14, 14, 256)       0         
_________________________________________________________________
conv2d_3 (Conv2D)            (None, 14, 14, 512)       1180160   
_________________________________________________________________
conv2d_4 (Conv2D)            (None, 14, 14, 512)       2359808   
_________________________________________________________________
conv2d_5 (Conv2D)            (None, 14, 14, 512)       2359808   
_________________________________________________________________
max_pooling2d_3 (MaxPooling2 (None, 7, 7, 512)         0         
_________________________________________________________________
flatten_1 (Flatten)          (None, 25088)             0         
_________________________________________________________________
dense_1 (Dense)              (None, 4096)              102764544 
_________________________________________________________________
dropout_1 (Dropout)          (None, 4096)              0         
_________________________________________________________________
dense_2 (Dense)              (None, 2048)              8390656   
_________________________________________________________________
dropout_2 (Dropout)          (None, 2048)              0         
_________________________________________________________________
dense_3 (Dense)              (None, 101)               206949    
=================================================================
Total params: 117,971,141
Trainable params: 117,970,949
Non-trainable params: 192
_________________________________________________________________
None
Epoch 1/1000

Creating test generator with 3783 samples.

Generator yielding batch No.1
Validating for job: N/D

Creating train generator with 9537 samples.

Generator yielding batch No.1
…
